data.pth (torch, 7575 bytes, 6 tensors)

l1.weight f4 [8, 90]
00000000: 6d7d d73e dcd9 723e 98c0 df3e 9299 d43d
00000010: 72e1 ba3e c168 e5bd ec83 b3be 076b 183e
00000020: 7712 9d3e 2933 023f 7cc6 b5be f81d aabf
00000030: 01d6 0c3f 9b20 1f3f bd03 ad3d f517 dbbe
00000040: a6ed c3be cc46 6fbe d02a 18bf d290 b83f
00000050: 2830 c2be ae32 abbe 2374 2bbe 2c8d 41be
00000060: 1948 9dbe 1c3b e33e 1a73 3b3e 0cef 9cbe
00000070: 592a e0be a00b fe3e ca86 f23e 7dfb 23bf
00000080: c6e1 f4bd 812c c63e cb65 c33e de0c 24bf
00000090: a74c abbe 626e 443e a90b 24bf 6ef6 a1be
000000a0: c667 52bf 90d3 163e d2e9 333e 1e33 e63e
000000b0: cdd6 63be d2f8 e3be 0848 883d 9ee5 503e
000000c0: 8eb8 f53e 265f f8bd 12e2 f2be 1af0 15bd
000000d0: 6209 ba3e f6e7 bb3e f0ac 38be a33a 60be
000000e0: b6c8 ae3e 9f00 8b3e c1b4 213f 2780 d13e
000000f0: f36d 88be 4a34 aabd bd03 b43f 92f5 b63d
00000100: 4897 773f 352d 1f3f 982f b4be a7ab ff3e
00000110: 2623 1b3e 0a23 28be 40e6 b1be 7d50 403e
00000120: 5e3b 013d a175 3c3f 0e84 903f ec75 0c3f
00000130: 2e62 9bbe a310 f7bd bd76 0bbe acbe 783d
00000140: 2025 93be b3d5 13bd 0f72 953e c269 713e
00000150: 41e0 063f 0383 20be de49 063f 214b 19bf
00000160: d1f2 fc3e cd13 083f 2521 a5be b220 c23e
00000170: d534 273e 621e 8e3e 9f37 f2be 8520 8cbe
00000180: 99e9 eabe 7cdb bc3e ccdb 583f 370b 8b3d
00000190: 005f 8b3e c45c 923d 86df 93be 6da0 863f
000001a0: b99f f53e 5fb9 933f 7383 d53e 1594 d03e
000001b0: bd67 013f 150f 21bf c610 2e3f 368e 38be
000001c0: 0c25 693f ea44 733e c693 ab3e 970f 183f
000001d0: 2ade 9e3f f5f8 96be 17d5 a63f 5adb 06bf
000001e0: da28 cc3d a55c 00bf 6b84 c23e 37aa 113e
000001f0: 3806 d3be aa46 c9be 3002 54be 5be8 053f
00000200: 12e8 03bf 74b1 a03f a21a 1f3e 9237 943e
00000210: 4a31 cc3e 2b50 583f 32c1 03bd 6cb9 663f
00000220: 15d0 883e b613 243f d937 e43e abeb 483f
00000230: e3da 983f acfc 813f 2d43 c63b cd2b bdbe
00000240: 91f9 1c3f 2a62 a03e b729 993f 88ec 083f
00000250: 40c8 f0be 015d 3f3f a19a 7d3e 3f96 803d
00000260: 832e 3abf 660f 983f 5151 893e ab2f 913f
00000270: 7e0f 953e d356 693f 7d25 2a3f 92ac 0f3f
00000280: 05a1 663f 3700 193f 308d 173e 0106 22bf
00000290: e7ca 54bf 99c9 9cbe 01c3 80be 74d1 213f
000002a0: 9c92 303f 6f78 3a3f cc55 f13e 43e5 583f
000002b0: 1125 893e 70a9 bebf 2fda 963f 60b5 533f
000002c0: ec43 66be 01b6 1f3f 812b b53d 3088 a3bd
000002d0: 25dc dabe bc3e 543e d281 90be 6c73 eb3e
000002e0: a4a6 01bf 1902 2abc 0e87 7abe cb81 1d3f
000002f0: c5b1 823f 6cae 54be 9a2f 043f 2e14 f43f
00000300: 655b e1be f875 163f d29e e03e 51a4 873f
00000310: af6e 2f3f e53b ef3e d1bf 003f 3040 00bf
00000320: 05fe cb3e c5a5 f43d 4ba6 dd3e 528e ee3e
00000330: 6926 ec3e 6cf8 3b3f a172 073f a1df 243e
00000340: 7909 5e3f ecd9 e2be 6558 b03e b8b4 c23c
00000350: a3c5 d83e 6b69 ed3b 5ce2 d0be 938d b3bb
00000360: 66be ae3d e07f f03d a149 c73c 06c5 843f
00000370: b733 063f d0d0 cdbd 9a18 dc3e e3b8 8e3f
00000380: 5605 aa3e 364b 8cbd e0af 873e 263f f23e
00000390: 23f1 f63e 0cf7 e43e e669 2c3f c91e fd3f
000003a0: 3cd9 a1bd 0e3e 01bf 5dbb 0e3f af9c f13e
000003b0: 23f2 fe3e c790 1c3f 240d 24bf 0136 8e3f
000003c0: a38f d23e c909 b53e 4d6f f7be 388a 2b3f
000003d0: 552b 50bd ad87 1e3f fda2 f03e 6589 2c3f
000003e0: d950 963e 780c 953e c486 8fbd a67d 8d3e
000003f0: 7409 953e 824f 38bf 7f73 73bf 46de 07bf
0.4208788 0.2371592 0.43701625 0.10380854 0.36500126 -0.11201621 -0.35061586 0.14884578
0.3067815 0.50859314 -0.35502994 -1.3290396 0.55014044 0.62159127 0.08447979 -0.42791715
-0.3826725 -0.2336685 -0.59440327 1.4419196 -0.37927365 -0.33437103 -0.16743521 -0.18901509
-0.3071907 0.44381034 0.18305627 -0.30651128 -0.4378231 0.49618244 0.4736846 -0.64055616
-0.11957125 0.3870583 0.381636 -0.64082134 -0.3345692 0.19182733 -0.6408029 -0.31633323
-0.82189596 0.14729142 0.17569664 0.44960874 -0.22249909 -0.44525772 0.06654364 0.20400092
0.47992367 -0.12127523 -0.47438103 -0.03660593 0.36335284 0.3670041 -0.1803472 -0.21897368
0.34137505 0.2714891 0.63166434 0.40918085 -0.26646385 -0.083107546 1.4063641 0.089335576
0.9671521 0.62178355 -0.3519256 0.49935648 0.15150127 -0.16419616 -0.3474598 0.18780704
0.031550758 0.7361699 1.12903 0.54867435 -0.30348343 -0.1206372 -0.13619514 0.060728714
-0.28739262 -0.03609247 0.29188582 0.235755 0.52685934 -0.15674977 0.5245646 -0.5988026
0.49404004 0.53155214 -0.3225185 0.3791557 0.16328748 0.27757555 -0.4730806 -0.2736856
-0.45881346 0.36886203 0.84710383 0.067892484 0.27220917 0.071466 -0.28881472 1.0517708
0.4797342 1.1540946 0.4170185 0.40737978 0.5054892 -0.6291364 0.67994344 -0.18022999
0.91072154 0.23756757 0.3351118 0.5939879 1.2411549 -0.29486814 1.303378 -0.52678454
0.09968729 -0.50141364 0.37991652 0.14225088 -0.41215682 -0.39311725 -0.2070396 0.5230767
-0.51525986 1.2554154 0.15537503 0.28948647 0.39881355 0.84497327 -0.032166667 0.9012668
0.26721254 0.64092577 0.44573858 0.784846 1.1941799 1.0155234 0.0060504884 -0.3694748
0.6131831 0.31324893 1.1965855 0.5348592 -0.4702778 0.7475129 0.24766017 0.06278657
-0.7272722 1.1879699 0.26819852 1.1342672 0.29113382 0.9114811 0.6646345 0.56122696
0.90089446 0.5976595 0.14799953 -0.6329041 -0.83122104 -0.30622557 -0.25148776 0.63210225
0.6897371 0.7284002 0.4713577 0.84724826 0.26786092 -1.4895458 1.1785334 0.8269863
-0.22486848 0.6238709 0.08846188 -0.0798496 -0.42746082 0.20727056 -0.28224045 0.45986497
-0.506449 -0.010376477 -0.24465582 0.61526173 1.0210501 -0.20769662 0.51635134 1.9068658
-0.4401504 0.58773756 0.4387117 1.059702 0.68528265 0.46725383 0.5029269 -0.5009794
0.3984224 0.119456805 0.43290934 0.46592957 0.46123055 0.73425937 0.52909285 0.16100933
0.86733204 -0.44306886 0.3444244 0.023767814 0.42338285 0.007245233 -0.40797698 -0.0054795234
0.08532409 0.1174314 0.024327101 1.0372627 0.5242266 -0.100495934 0.4298752 1.1150173
0.33207196 -0.06850283 0.2650137 0.47313803 0.48230848 0.44719732 0.6734909 1.977502
-0.07902762 -0.5048531 0.55754644 0.47189853 0.4979411 0.6115841 -0.6408255 1.1110231
0.4112521 0.35359028 -0.48327103 0.6700778 -0.050822575 0.61925775 0.4699935 0.6739715
0.29358557 0.29111075 -0.070081264 0.27634925 0.29108775 -0.7199632 -0.9509811 -0.5307354

l1.bias f4 [8]
00000000: db0f 243f 05cd 8f3f 4089 733f bc9b 203f
00000010: 3240 1c3f ba85 353f 87c9 883f 8c63 873f
0.64086694 1.1234442 0.951313 0.6273763 0.61035454 0.70907176 1.0686501 1.0577254

l2.weight f4 [8, 8]
00000000: 8099 16bd 8891 8cbe 3817 a5bd acc6 c63d
00000010: 6072 613d 0e8b a1be d794 983e 021b 8cbe
00000020: e743 ff3f 3a36 dfbe 98e4 de3a ef99 8f3d
00000030: 288a ecbd 2aea f33f c134 bf3f 9853 2b3e
00000040: 505e d43f f6e0 683f 3329 f3be 7aed a6bd
00000050: 9553 c3bf c985 da3f 218a 9f3e 80c7 203f
00000060: 035f b13d 77e1 9b3f 14ed aa3f d4af b6bf
00000070: 465e 3dbf a2c5 293f cad3 80bf 9dfe ce3f
00000080: 2207 40be 8019 b2bd b0a8 f73c 8a4b d4bd
00000090: 3a1b 2ebe 41f5 873e 4dd6 3fbe 6f8d 2cbe
000000a0: 9766 8dbe b853 f93d 3aa8 99be cc0f e0bd
000000b0: e6c2 003e 9ad5 313e a676 003e 1038 f9bc
000000c0: 5855 aebf d48a 353e 6537 ab3f 7022 9cbe
000000d0: e76d f53f 9420 7bbf 6b3c 0640 aba9 e03f
000000e0: b22f 1cbe 71ea db3f e428 f13f 6ddc 2e40
000000f0: a9a9 0b40 973d 203e f34a d9bf 3b50 3abf
-0.036767483 -0.27454782 -0.08061069 0.097058624 0.055040717 -0.31551403 0.29801056 -0.27364355
1.9942597 -0.4359606 0.0017005382 0.070117824 -0.11549789 1.9055836 1.4937974 0.16731107
1.6591282 0.90968263 -0.4749237 -0.08150764 -1.5259882 1.7072078 0.31160071 0.6280441
0.086607 1.2178181 1.33536 -1.4272408 -0.73971975 0.6631719 -1.0064633 1.6171452
-0.18752721 -0.0869627 0.030231804 -0.103659704 -0.17002574 0.265543 -0.18734093 -0.16850828
-0.27617332 0.12174171 -0.3001116 -0.10940513 0.12574348 0.17366639 0.12545261 -0.03042224
-1.3619795 0.1772874 1.337628 -0.30495024 1.9174165 -0.98096585 2.0974376 1.7551779
-0.1525257 1.7180921 1.8840604 2.7322037 2.1822302 0.15648495 -1.6975998 -0.7277867

l2.bias f4 [8]
00000000: 70f5 21be 1ca3 d73d 2ab7 853e e889 f53e
00000010: ca94 22be 9900 65be 5c60 bb3e 6bbe 103f
-0.15816283 0.105291575 0.26116306 0.47956777 -0.15877071 -0.22363509 0.36596954 0.56540555

l3.weight f4 [20, 8]
00000000: 4440 ae3d f210 2fbf f7da 0fbe 65a5 6fbd
00000010: 0d87 943e b54a 1abe 6ce0 31bd bc07 d03e
00000020: 51bc 803e 445a 7fbf fe3a aebe 5bd7 123f
00000030: c043 063c e0cc 873d b351 003f 4367 c7be
00000040: 602c 403c 1249 b6bd 6fe8 82bf acf0 50bf
00000050: c0e7 f23c f088 c6bd d79f 263f bd50 4fbd
00000060: c514 883e 697c 9bbf 480e c6bf 559e 2f3c
00000070: 37e1 ac3e 1e83 1e3e 9f44 023f 08bd a63e
00000080: b89b 24bd d68c 53bd 1152 af3d e857 14be
00000090: 5e02 80be f2e7 553e 72cf 0cc0 229f 173f
000000a0: 97ed a03e 4082 19c0 f6dc 77bf 1e35 f3be
000000b0: 912c a33e 848f f9bd bd20 3cbe a535 8b3f
000000c0: 9eff 013e bfd9 24bf 5fac b2be c332 ff3e
000000d0: 628f 713e d821 4ebe da46 983f 233f 15c0
000000e0: d8ba 133e 5dba 2ac0 759b 73bc 9d06 163f
000000f0: 8ad3 9dbe 6cad 813d 3e89 263e 16dd a13e
00000100: 8853 e3bd 4b4d 8ebf ecab b4bf 98f4 1fc0
00000110: 764f 543e 8ef1 d4bd fc29 653f a9f7 0a3f
00000120: 80a1 d63b eb2d 743e d267 db3e 8e6b f03e
00000130: 708b d9bc 7604 42be 05ec acbf 03ed 3bbf
00000140: 789d 58bd 07b8 d53e 1014 953e 3226 af3d
00000150: a82f 0abd f3bc 903e 8ce5 e3bd 854b cdbf
00000160: 442b 0b3e ef52 b43e 5df8 60bd f213 bbba
00000170: 254e 8f3e 3049 853d 180c 3fbf 873e 743d
00000180: 6936 96be 7c41 a93e 10b2 4a3e 327f efbf
00000190: cf05 8d3e 6e28 1c3e a977 cdbe 9cdf 083f
000001a0: 402a b2bc c715 64bf 0968 3bbf 8a42 06bf
000001b0: e090 b9bc 9097 cabc 739e 45bf 0d39 23bf
000001c0: 4afb 733e d2ef 52bf 87fd 4abf f61d 93be
000001d0: b226 1b3e debc 2b3e 713d e0be 48a2 34bf
000001e0: be06 94be c68e 2fbf 80c1 1bbf 3204 3ebf
000001f0: ed88 37be 4375 a63e 340a 1fbf 6647 36be
00000200: f986 a93e b12b 51bf 2ae3 05bf 5c17 53bf
00000210: 1658 a8be 37c9 b2be 973d 2ebf c917 d1be
00000220: e0f5 a8bd fcf0 583f 6abd 593f 3ad8 b8bf
00000230: 0a1a 613e 00a0 68b9 dd9d e2bf ca65 a1bf
00000240: d06e fa3d 0606 c6be b2f8 323e 6591 403f
00000250: 4e21 3e3e 00c4 d039 6ea9 9fbe df19 06bf
00000260: cb31 40be 2ba3 6abc 1361 6a3e a5a2 f0be
00000270: ef1d 67be 0a6d 65be e769 a23e 457d bdbe
0.085083514 -0.6838523 -0.14048372 -0.058507342 0.29009286 -0.15067561 -0.043426916 0.406309
0.25143674 -0.9974711 -0.34029382 0.57359856 0.008194864 0.06630874 0.50124663 -0.3894597
0.01172933 -0.08900656 -1.0227183 -0.81617236 0.029651523 -0.096940875 0.65087646 -0.050614107
0.26578346 -1.2147342 -1.5473108 0.010718902 0.33765575 0.15479705 0.5088596 0.32566094
-0.040187567 -0.051647983 0.08560575 -0.14486659 -0.25001806 0.20889261 -2.2001615 0.5922719
0.31431267 -2.3985748 -0.96821535 -0.47501463 0.3186994 -0.121855766 -0.18371864 1.0875746
0.12695166 -0.64394754 -0.34897134 0.49843416 0.23589852 -0.20130098 1.1896622 -2.3319786
0.14426744 -2.6676247 -0.014868607 0.5860384 -0.30825454 0.06331906 0.16263291 0.31613988
-0.11099917 -1.1117338 -1.4114966 -2.4993038 0.20733437 -0.103976354 0.8951719 0.5428415
0.006550014 0.23845641 0.42852646 0.46957058 -0.026555747 -0.18947014 -1.3509527 -0.73408526
-0.05288455 0.41741964 0.2911687 0.08552207 -0.033736855 0.28269157 -0.11127767 -1.6038672
0.13590723 0.35219523 -0.054924358 -0.0014272912 0.27989307 0.065081 -0.7462783 0.059629943
-0.29338387 0.33057773 0.19794488 -1.8710692 0.27543494 0.15249798 -0.40130356 0.534662
-0.021748662 -0.8909573 -0.7320562 -0.5244528 -0.02265209 -0.024730474 -0.771949 -0.6375893
0.23826328 -0.82397187 -0.792931 -0.28733796 0.1515148 0.16771266 -0.43796876 -0.7056012
-0.28911394 -0.6857723 -0.6084213 -0.7422515 -0.17923327 0.3251134 -0.62124944 -0.17800674
0.33110788 -0.8170729 -0.5229975 -0.8245752 -0.32879704 -0.3491914 -0.6806273 -0.4083846
-0.08250022 0.8474271 0.8505465 -1.4440987 0.2198259 -0.00022184849 -1.7704426 -1.2609189
0.12228167 -0.3867647 0.17477682 0.75221854 0.18567392 0.00039818883 -0.31183952 -0.52383226
-0.18768995 -0.014321129 0.22888593 -0.46999088 -0.22570013 -0.22404876 0.31721422 -0.37009636

l3.bias f4 [20]
00000000: f475 c5be feef 18bf 62d3 023d c8f6 a1be
00000010: 8525 05bf d776 453f f631 613f 339c adbe
00000020: c127 9e3b a629 ffbd 6940 9cbe b303 4cbe
00000030: cb3f 9d3e 4991 b0be fd7f 2dbf 7d19 90bc
00000040: 9646 99be 50e0 6c3f b599 1ebf d799 bd3d
-0.38566554 -0.597412 0.03193987 -0.31633592 -0.52010375 0.7713446 0.8796686 -0.33908233
0.0048265164 -0.12459116 -0.3051789 -0.19923286 0.30712733 -0.34485844 -0.6777342 -0.017590279
-0.29936665 0.92529774 -0.6195329 0.09257858
